backend/ckpts/svm_linear_20000.pth (torch, 11406 bytes, 2 tensors)

weight f4 [3, 768]
0	0x3e467954	0.1938222
1	0xbeb20119	-0.34766462
2	0xbf48cfd2	-0.7844211
3	0xc08a592c	-4.3233852
4	0x3f2bed71	0.6715918
5	0x3e14f542	0.14546683
6	0xbfe4b948	-1.7869043
7	0xbfea93ef	-1.8326396
8	0x4010a394	2.259984
9	0x3ffb58e4	1.9636502
10	0x3e54f2af	0.20795701
11	0xbfc52277	-1.5401143
12	0xbfe5d5ce	-1.7955873
13	0x3fb091d6	1.3794506
14	0x3fe5c5d3	1.7950996
15	0x3ee33bd4	0.44381583
16	0xbee64c03	-0.44979867
17	0x3f27bad8	0.65519476
18	0xbe43a77f	-0.19106863
19	0xbf1612da	-0.58622515
20	0x3f8b0456	1.0860698
21	0xbd931165	-0.07181052
22	0xbfae916f	-1.3638133
23	0xbf52abad	-0.82293206
24	0x3fd69cf2	1.6766646
25	0xbf8813ff	-1.0631102
26	0xbea60afe	-0.3243026
27	0x3fa4eaf2	1.28842
28	0xbff3d5e8	-1.9049654
29	0xbfbf6531	-1.4952756
30	0x409f319a	4.974805
31	0x3f91403c	1.1347728
32	0xbf97891d	-1.1838719
33	0x3f079a90	0.5297022
34	0x3f6af7a8	0.91784143
35	0x3ee2d7ce	0.4430527
36	0x3e1ad910	0.15121865
37	0xc006666d	-2.1000016
38	0x3f939299	1.1529113
39	0xc04d02f8	-3.2033062
40	0x40633b6b	3.5505016
41	0xbfd1ff2e	-1.6406
42	0xbfce8c2b	-1.6136526
43	0x40022a22	2.0338216
44	0x4005ef20	2.09272
45	0xbf58a488	-0.84626055
46	0xbeefb72c	-0.46819437
47	0x3f1eaea5	0.61985236
48	0xbe44c916	-0.19217333
49	0x3f96773c	1.1755137
50	0x3fcef8b0	1.6169643
51	0x3ffa6564	1.9562192
52	0x402e2c25	2.7214444
53	0xbfa4c903	-1.2873844
54	0x3e284722	0.16433385
55	0x3f8a0d49	1.0785304
56	0xbf92e8ce	-1.1477296
57	0xc01ccfc6	-2.4501815
58	0xc072e694	-3.7953234
59	0xbf818b10	-1.0120564
60	0xbecb2df9	-0.39683512
61	0xbf0eb130	-0.55739117
62	0xc06fa0e9	-3.7441962
63	0xbeae9818	-0.34100413
64	0xbf9ff6e9	-1.2497226
65	0x40970342	4.7191477
66	0x3f065ff0	0.5249014
67	0xbeb6419a	-0.35596925
68	0xbfc25aca	-1.5183957
69	0xbf26b3f8	-0.6511836
70	0xbefb38f8	-0.490669
71	0x40643f25	3.566354
72	0x3eaeaa8f	0.341145
73	0x3f3947f0	0.7237539
74	0xbe1d912f	-0.15387414
75	0x3e0a96c9	0.13534082
76	0x3fec2b7f	1.8450774
77	0xbdee7bec	-0.1164473
78	0xbbeeddef	-0.00728964
79	0x3c747b11	0.014921919
80	0x3e70c2a3	0.23511748
81	0x3e333598	0.17500913
82	0x407db368	3.964075
83	0xbf0502d2	-0.5195743
84	0x3dbe58fe	0.09294318
85	0xbd084e2e	-0.033277683
86	0x40325ed9	2.787039
87	0xbfb62142	-1.42289
88	0x4075bd31	3.8396723
89	0xc00fdf7e	-2.2480159
90	0x3e6127b2	0.21987799
91	0x3fc2ca4c	1.5217986
92	0xc0064e8e	-2.0985446
93	0xbe544f47	-0.20733367
94	0x3fa91b14	1.3211389
95	0xc0186094	-2.3808947
96	0x4009d3b5	2.1535466
97	0xbef65831	-0.4811416
98	0xbf4861ef	-0.78274435
99	0xbe3f78ac	-0.18698376
100	0x404ebb5e	3.230186
101	0xbe8a6dcb	-0.2703689
102	0x3fbdbc76	1.4823139
103	0x400b392e	2.175365
104	0xbe40d55d	-0.18831392
105	0xbfadaf15	-1.3569056
106	0x3fe18096	1.7617366
107	0x39e53f1a	0.00043725298
108	0xbfe41839	-1.7819892
109	0x3e7a5fa6	0.2445055
110	0xbfd8c606	-1.6935432
111	0x3dfc5c29	0.12322266
112	0xbeb376e8	-0.35051656
113	0xbf7e3863	-0.9930479
114	0x3e6a2963	0.2286735
115	0x3ea02f0e	0.312859
116	0xc0056441	-2.084244
117	0x3e952fe0	0.29138088
118	0xbf3a2d35	-0.7272523
119	0xbf88d6a0	-1.0690498
120	0x40055bf9	2.0837386
121	0x3fc8d3d5	1.5689646
122	0xbc820693	-0.015872275
123	0x3e66b9f1	0.22531869
124	0xbfe143ac	-1.7598777
125	0xbf902efd	-1.126434
126	0xbb173683	-0.0023073263
127	0xbfda0348	-1.7032251
128	0xc03162aa	-2.771647
129	0xbf00c36b	-0.50298184
130	0x3fa67d13	1.300692
131	0x405b783d	3.4292138
132	0xbe3a3c4e	-0.18187067
133	0x4017b231	2.370251
134	0x3fcb37bb	1.5876383
135	0xbe2667ca	-0.1625053
136	0x3f55d7bb	0.83532304
137	0x4021b08a	2.5264
138	0xbf47fe29	-0.7812219
139	0xc01ee54d	-2.4827454
140	0x3ea2b7e9	0.31780937
141	0x4003df3a	2.0604997
142	0x3fff3720	1.9938698
143	0x3e17d02a	0.14825502
144	0xbe1ca055	-0.15295537
145	0xbe94e4c6	-0.2908079
146	0x3fdd2e3c	1.7279735
147	0xbe584d6f	-0.21123289
148	0xbfd76ff6	-1.6831043
149	0x3fb42278	1.4073019
150	0x40132a64	2.2994623
151	0xbf20b99e	-0.6278323
152	0xbf8f0096	-1.1172054
153	0xbe8e3d35	-0.27781072
154	0x3f301ab7	0.68790764
155	0x3f52fa20	0.8241291
156	0xbe21c075	-0.15796073
157	0xc02a752c	-2.6634016
158	0x3e7ac89d	0.2449059
159	0x3f899d0c	1.0751052
160	0x40333bc9	2.800524
161	0xbf3b4870	-0.73157406
162	0x3e7dd2b4	0.24787408
163	0xbf73371e	-0.9500598
164	0xbf25f9c5	-0.64834243
165	0xc0a8edc1	-5.2790227
166	0xbfbaeb0d	-1.4602982
167	0xbff28917	-1.8948087
168	0x3f94d745	1.1628195
169	0x3e04ada2	0.1295686
170	0x4001545d	2.0207741
171	0xc0218ba9	-2.5241492
172	0xbf8c356d	-1.0953804
173	0xbc8cf5f3	-0.017207121
174	0xbe688824	-0.22708184
175	0xbdde2988	-0.10847765
176	0xbfdb1d55	-1.7118326
177	0xbfebbf36	-1.8417728
178	0x3d9594ac	0.073037475
179	0x3e462c16	0.19352755
180	0xbe3fbaa7	-0.18723546
181	0xc049db1f	-3.153999
182	0xc01102d1	-2.265797
183	0x3d28abb2	0.041179366
184	0x4012cc5a	2.2937226
185	0xbfabcbe9	-1.3421603
186	0xbe541f7b	-0.20715134
187	0x3f32a193	0.6977779
188	0x3c80bdbe	0.015715476
189	0x3fde93a7	1.738881
190	0xbfb8084a	-1.437753
191	0x3f878744	1.0588155
192	0xbe562ad8	-0.20914781
193	0xbff43241	-1.9077836
194	0xbe5f9775	-0.2183512
195	0x3ebe246b	0.3713716
196	0xbd385633	-0.04500408
197	0xbe2e863b	-0.17043392
198	0x3eb1313c	0.34607875
199	0xbe30a99a	-0.17252198
200	0x3efeeb22	0.49788767
201	0xbe0fb51e	-0.14033934
202	0x3e3536fc	0.17696756
203	0x3f3edc58	0.7455497
204	0x3f1b4685	0.6065448
205	0xbe23c76f	-0.15994047
206	0x3fa8f70a	1.320039
207	0xbe83d015	-0.25744691
208	0xbf47d6c3	-0.78062075
209	0x3ff68ab6	1.9261081
210	0xbd61afb5	-0.055099208
211	0x40004da7	2.0047395
212	0xbd966e6e	-0.073452815
213	0xbf4f5129	-0.80983216
214	0xbe2d6ff6	-0.16937241
215	0x3e82d115	0.25550142
216	0xbda6ef29	-0.08151085
217	0x4005adae	2.0887256
218	0xbd8a6ba8	-0.06758815
219	0x3f728c24	0.9474509
220	0x3dda1f0a	0.106504515
221	0x3f0fd238	0.56180143
222	0xbf374c29	-0.71600586
223	0xbd22060b	-0.039556544
224	0xbf0742ef	-0.5283651
225	0xbf96c8e5	-1.1780058
226	0x3f9290bc	1.145042
227	0xbe0b5667	-0.13607179
228	0x40152205	2.3302014
229	0x3fd37f32	1.6523192
230	0xbd99d481	-0.07511235
231	0x3f56ab99	0.8385559
232	0xbe1f02a8	-0.15528357
233	0xbf7100d6	-0.941419
234	0x3f8be8e8	1.0930452
235	0xbfd2a21c	-1.6455722
236	0xbee611a4	-0.44935334
237	0xbe9af125	-0.30262104
238	0x3d96cb27	0.07362967
239	0x3eb509fb	0.35359177
240	0x4012440a	2.2854028
241	0xbf5c3423	-0.86017054
242	0xbe383ce0	-0.17991972
243	0x402dac7b	2.7136524
244	0xbfc3edb0	-1.5306911
245	0xbb6c30c5	-0.003603981
246	0xbd89dd93	-0.06731715
247	0xbd8ebd64	-0.06969717
248	0xbe2d31f0	-0.16913581
249	0xbf9c4098	-1.2207212
250	0xbf97c607	-1.1857308
251	0xc000d4ca	-2.0129876
252	0xbeda5424	-0.4264232
253	0x3f7551fa	0.9582821
254	0xc04d0ea2	-3.204018
255	0xbf4d3186	-0.8015369

bias f4 [3]
0	0xc0096e15	-2.1473439
1	0xbea232c1	-0.31679347
2	0x3f2265ac	0.6343639
