backend/ckpts/svm_linear_10000.pth (torch, 11406 bytes, 2 tensors)

weight f4 [3, 768]
0	0xbf71bc4a	-0.9442793
1	0xbdcf044a	-0.1010824
2	0xbe3a4ddf	-0.18193768
3	0xc025ddcd	-2.5916626
4	0xbf52ee39	-0.8239475
5	0x3e69f611	0.22847773
6	0xbfa4f96c	-1.2888618
7	0xc0895675	-4.291804
8	0x3fb78abc	1.4339213
9	0x402c0744	2.6879435
10	0x3ee0a0ae	0.4387259
11	0xbfa1264f	-1.2589816
12	0xbf9cbf8c	-1.2245955
13	0x3fc2d1bc	1.5220256
14	0x3fa53a6e	1.2908456
15	0x3f724682	0.94638836
16	0x3eedff46	0.4648382
17	0x3fc05b7b	1.5027918
18	0xbe58e417	-0.2118076
19	0xbf9a1c24	-1.2039838
20	0x3fd84cc7	1.689843
21	0xbe859e1a	-0.26097184
22	0xbf3991cc	-0.72488093
23	0x3f03044d	0.5117844
24	0x3fb5d600	1.4205933
25	0xbfa3c694	-1.2794976
26	0xbd95a2ea	-0.07306464
27	0x40188630	2.3831902
28	0xbf817277	-1.0113057
29	0xbf466b5f	-0.77507585
30	0x409fbbd0	4.9916763
31	0x401ceb21	2.4518511
32	0xbf59e8ca	-0.8512083
33	0x3ed4f655	0.41594186
34	0x3f54b703	0.83091754
35	0x3ed8b1b9	0.42323092
36	0xbf6d908a	-0.92798674
37	0xc0399d95	-2.900243
38	0x3e4c6434	0.199601
39	0xc0066bd1	-2.1003306
40	0x40065707	2.0990617
41	0xc015d3f5	-2.3410618
42	0xbfeb428a	-1.8379681
43	0x3f79316c	0.97341037
44	0x40154049	2.3320487
45	0xbfa50f0f	-1.289522
46	0xbd8c0cb8	-0.068383634
47	0x3fcf25c8	1.6183405
48	0x3e7300c4	0.23730761
49	0x3f8af870	1.0857067
50	0x3f5ea42b	0.8696925
51	0x40182cb0	2.3777275
52	0x3f2221d7	0.63332886
53	0xbf3e8ba0	-0.744318
54	0x3dcbcfca	0.09951742
55	0xbd98dd92	-0.07464136
56	0xbe9b132d	-0.30288067
57	0xc00bc329	-2.1837866
58	0xc026eced	-2.6082108
59	0xbf9ab269	-1.2085696
60	0xbf3b2e0b	-0.7311713
61	0xbf876496	-1.0577571
62	0xbff3e0cd	-1.9052979
63	0xbe4afa8f	-0.19822143
64	0x3f022873	0.5084297
65	0x4026419c	2.5977545
66	0xbd146333	-0.036227416
67	0xbf0581a4	-0.5215094
68	0xbfcdee6b	-1.6088384
69	0xbf99c53b	-1.2013315
70	0xbef24bd8	-0.4732349
71	0x401f50e1	2.4893115
72	0xbe324d9e	-0.17412421
73	0xbf0efba4	-0.55852723
74	0xbe95fa29	-0.2929242
75	0x3c3f60ba	0.011680776
76	0x3f905391	1.1275502
77	0xbf0b5446	-0.54425466
78	0xbe854fc3	-0.26037416
79	0xbf126368	-0.5718293
80	0x3db56161	0.08856464
81	0x3f282399	0.6567932
82	0x407ade4f	3.9198186
83	0x3f47654c	0.7788894
84	0xbe32c36d	-0.17457362
85	0xb9947c32	-0.00028321292
86	0x401a104b	2.4072444
87	0xc006de97	-2.1073358
88	0x404d09eb	3.2037303
89	0xbfee8172	-1.8633254
90	0xbd86bde3	-0.06579187
91	0x3f8976d4	1.0739388
92	0xbffec217	-1.9902982
93	0xbd1e5ae1	-0.038660888
94	0x3fa1cfc4	1.264153
95	0xbf9ee362	-1.2413142
96	0x3f27fdd4	0.65621686
97	0xbe8ff61c	-0.28117454
98	0x3fb30e54	1.3988748
99	0xbe256be9	-0.16154446
100	0x40309e82	2.7596745
101	0xbedc1b54	-0.429896
102	0x3fd3e2fa	1.6553643
103	0x3ffe8f0c	1.9887404
104	0x3e8ad9cb	0.27119288
105	0xbfb42ace	-1.4075563
106	0x3f82b8aa	1.0212605
107	0x3f131888	0.57459307
108	0xc01995a0	-2.3997574
109	0xbd53a75c	-0.05167328
110	0xc0089b05	-2.1344616
111	0xbd612a97	-0.054972257
112	0x3f82c9ff	1.0217894
113	0xbf493073	-0.7858955
114	0xbe44eb1d	-0.19230314
115	0x3f07d852	0.53064454
116	0xc01ac574	-2.4183016
117	0x3ebfbf4c	0.37450635
118	0xbefa5345	-0.48891655
119	0xbfbd77c7	-1.4802178
120	0x3f4ba160	0.79543114
121	0x3f3a5216	0.72781503
122	0x3f07ed18	0.5309615
123	0x3f77e83a	0.96838725
124	0xc0480fed	-3.125972
125	0xbec6676d	-0.38750783
126	0x3d951110	0.07278645
127	0xbb85fd8f	-0.0040890644
128	0xc00be790	-2.1860085
129	0xbdbb993c	-0.091600865
130	0x4059c0c5	3.4023907
131	0x4066a8b2	3.6040463
132	0xbc8b92b1	-0.017037721
133	0x3fc256ea	1.5182774
134	0x3fd64953	1.6741127
135	0xbee9397d	-0.45551673
136	0xbde76057	-0.11297672
137	0x3fc2bc90	1.5213795
138	0xbf469bcd	-0.77581483
139	0xc03aeb60	-2.9206161
140	0x3d2a418b	0.041566413
141	0x3fb40882	1.4065096
142	0x3fd3ac97	1.6537045
143	0xbf4622d6	-0.77396905
144	0xbdf3b001	-0.118988045
145	0xbed77802	-0.42083746
146	0xbe4cdba1	-0.20005657
147	0xbdfae9bc	-0.122516125
148	0xc02aed94	-2.6707506
149	0x3fe1db88	1.7645121
150	0x403fd505	2.9973767
151	0xbf2c3812	-0.67273057
152	0xbfcd34e8	-1.6031771
153	0xbea58f95	-0.32336107
154	0x3f639e58	0.8891349
155	0x3fef7c4f	1.8709811
156	0xbdeb8294	-0.11499515
157	0xbfd72a2f	-1.6809748
158	0x3e426e56	0.18987402
159	0x3eb6a548	0.35672975
160	0x3fc5c416	1.5450466
161	0x3f197723	0.59947413
162	0x3f295a1f	0.6615314
163	0xbeb04e32	-0.34434658
164	0xbfa71074	-1.3051896
165	0xc093f388	-4.623478
166	0xbffe19fc	-1.985168
167	0xbf0731d4	-0.52810407
168	0x3f30482d	0.6886013
169	0x3d061fea	0.03274528
170	0x3fd80adb	1.6878313
171	0xbff6f428	-1.929326
172	0xbf8de0d5	-1.1084238
173	0x3e9eff4d	0.31054154
174	0xbe018608	-0.12648785
175	0xbd455c54	-0.048183754
176	0xbf06d842	-0.52673733
177	0xc01246bc	-2.2855673
178	0xbeef19d6	-0.466994
179	0x3f833c6f	1.0252818
180	0xbf3ab3ae	-0.7293042
181	0xbfbc25e2	-1.4699061
182	0xc0113c44	-2.2693033
183	0xbe544c7e	-0.20732304
184	0x3fe1bf48	1.76365
185	0xbf1f8d89	-0.6232534
186	0xbf1f281b	-0.6217057
187	0x3fbf1b59	1.4930221
188	0x3b0cea12	0.0021501821
189	0x3f0b46df	0.54405016
190	0xc019c822	-2.4028401
191	0x3f524866	0.8214172
192	0xbddbb964	-0.1072872
193	0xbf180e09	-0.59396416
194	0x3f1bfa9e	0.60929286
195	0x3c0d4b3b	0.008623893
196	0x3c83a0d4	0.0160679
197	0x3e7a0ee2	0.2441974
198	0x3d27077e	0.04077863
199	0xbee6fa55	-0.45112863
200	0x3ede7919	0.43451765
201	0xbe414d99	-0.18877257
202	0xbf7b7cb4	-0.98237157
203	0x3f1ac8a0	0.6046238
204	0x3f200bac	0.6251781
205	0xbf10c3d0	-0.56548786
206	0x3f0be4b1	0.5464583
207	0xbd89db39	-0.067312665
208	0xbf758038	-0.9589877
209	0x3fe8f25b	1.8198961
210	0xbdd050d3	-0.10171666
211	0x40022a07	2.0338151
212	0x3d969d1c	0.07354185
213	0xbee01cc5	-0.4377195
214	0xbeb18685	-0.34672943
215	0x3f52c1f6	0.8232721
216	0xbe29ad90	-0.16570115
217	0x3eec5b65	0.46163478
218	0xbda57534	-0.08078995
219	0x3f437730	0.7635374
220	0xbfd14d2e	-1.6351678
221	0x3f9526bd	1.1652447
222	0xbf6949a6	-0.91128004
223	0xbe84fc14	-0.2597357
224	0xbf213282	-0.62967694
225	0xc02f103f	-2.7353666
226	0x40434bb7	3.0514963
227	0xbee1fe43	-0.441393
228	0x3fd38b68	1.6526918
229	0x3fdcbc40	1.7244949
230	0xbe30be33	-0.17260055
231	0x3fa703ae	1.3047998
232	0xbc09c1ff	-0.008408069
233	0xbd2707a9	-0.04077879
234	0x3fca2851	1.5793554
235	0xc010791b	-2.2573917
236	0xbebb1562	-0.3653975
237	0xbe88aa13	-0.26692256
238	0x3df3a640	0.11896944
239	0x3ea11318	0.3145988
240	0x400c5b04	2.1930552
241	0x3dae4f70	0.08511245
242	0xbeb251dc	-0.3482808
243	0x4026b578	2.604826
244	0xbe4db71a	-0.20089379
245	0x3e5d36f5	0.21602996
246	0xbe14cfda	-0.14532414
247	0xbeb4453d	-0.35209075
248	0xbe9df338	-0.30849624
249	0xc01ed679	-2.4818404
250	0xbf937f9c	-1.1523318
251	0xbf95d66e	-1.1706064
252	0xbee04d18	-0.43808818
253	0x3f450a82	0.7696916
254	0xbf8013fb	-1.0006098
255	0x3d88127f	0.06644153

bias f4 [3]
0	0xc0362f00	-2.8466187
1	0x3dd7c851	0.10536254
2	0x3ea857ba	0.3287943
