backend/ckpts/svm_linear_1000.pth (torch, 11400 bytes, 2 tensors)

weight f4 [3, 768]
000000 df 1a f2 3c eb 20 e6 be 0d 8b 7c bf 88 f9 26 bf
       0.029553829 -0.4494699 -0.98649675 -0.65224504
000010 af 35 96 3e 26 db 46 bd 5a 4c ae 3d d0 ed 29 bf
       0.29337832 -0.04854884 0.08510657 -0.663785
000020 68 74 8d 3f 1f ea 9b bb 2f f6 32 be c7 dd 20 be
       1.1051149 -0.004758134 -0.17476724 -0.15709601
000030 4c 54 b0 be c3 4c c2 3f c6 26 9c 3e fc 4f d3 3e
       -0.34439313 1.5179676 0.30498332 0.4127196
000040 ac 2b da be 69 67 12 be 8e 45 1f be 2f 7e 04 bf
       -0.42611444 -0.1429726 -0.15553877 -0.5175504
000050 35 75 fe be 9b c0 89 3b 14 fb ca be e3 69 27 bf
       -0.49698797 0.0042038686 -0.39644682 -0.65395945
000060 06 26 ca 3e bc 0a 0e 3f 0d 1e 04 bf ee eb 76 3f
       0.39482135 0.5548513 -0.51608354 0.9645375
000070 15 25 73 bf f6 14 bc 3e 8d ae 21 3f eb e8 38 3f
       -0.9497846 0.36734742 0.6315697 0.72230405
000080 f0 69 c2 be cb 07 50 bf ff 4d 72 3f b1 2d 83 3f
       -0.3797145 -0.8126189 0.9465026 1.0248319
000090 68 94 13 bf e0 34 a2 bd 94 76 bf 3e 39 dc 0a bf
       -0.57648325 -0.07920241 0.37395155 -0.54242283
0000a0 73 64 98 3e 51 f8 b1 be 3c 88 a2 bf 6c 7f bd be
       0.29764137 -0.34759763 -1.2697825 -0.37011278
0000b0 e7 da 27 3f f9 b5 87 bd ee 25 56 3f 42 63 43 bc
       0.65568393 -0.066265054 0.83651626 -0.01192552
0000c0 eb c4 6c bc f0 93 0d 3f 4b ff c1 3e ce ea 1d 3f
       -0.014451246 0.5530386 0.37890086 0.6168641
0000d0 af 25 f3 3e 90 34 c1 be ae af 6b 3e 5b 7c 9b be
       0.47489688 -0.37735415 0.23016235 -0.30368313
0000e0 45 a8 f6 be d0 91 55 bf 06 a0 03 bf 34 36 04 bf
       -0.48175254 -0.8342562 -0.5141605 -0.5164521
0000f0 60 94 e7 3e a5 4e 17 bf c6 3f 1e bf 0e 96 9c 3c
       0.4523039 -0.5910438 -0.6181606 0.01911452
000100 2e 02 14 3f 6b fe 91 3c b2 b4 c5 3d c7 c0 7c 3b
       0.57815826 0.017821511 0.096536055 0.0038567053
000110 a2 3a 53 bf 80 95 34 be 40 f5 3c bf 8f 4b e6 bd
       -0.8251134 -0.17635155 -0.7381172 -0.112448804
000120 73 30 05 bf ee bb 0d bf fe 0a 1b bf e4 fa e6 be
       -0.5202705 -0.5536488 -0.6056365 -0.4511329
000130 91 b0 09 3f 16 48 fd be 0c 46 b5 be ee 35 4d 3e
       0.53785044 -0.4946906 -0.35405004 0.20040104
000140 16 7a 3c 3c 90 06 9b 3e 05 9f d9 3f 6f 90 b2 3e
       0.011503717 0.30278444 1.7001654 0.3487582
000150 e8 e9 47 3f 56 a5 b9 3c c1 22 03 3f 56 30 6f bf
       0.7809129 0.022661846 0.51224905 -0.9343313
000160 ea ca e8 3e 2d 46 1d bf 4f d5 a6 be 09 f8 2e bd
       0.4546731 -0.61435205 -0.32584617 -0.042717014
000170 9f 9d 95 be 35 33 20 be a8 fd 89 3b ca 68 e4 be
       -0.29221818 -0.15644534 0.0042111464 -0.44611198
000180 48 1f 2c 3f 38 8e b9 be 39 ee c2 3e f5 fc e9 be
       0.6723523 -0.36241317 0.38072374 -0.45700803
000190 8b fc ea 3f 31 2f f1 be 16 13 e9 3e e6 e5 6e 3f
       1.835832 -0.47106317 0.45522374 0.9331955
0001a0 32 58 c2 3e 7a 12 b9 be d2 f2 65 be 93 cc b4 3e
       0.37957913 -0.3614691 -0.2245591 0.35312328
0001b0 a3 74 d3 be f0 3f 1b bf 91 f6 11 bf d0 ea 7e be
       -0.41299924 -0.60644436 -0.57016855 -0.24894261
0001c0 2c 1c 52 be 39 3b b2 be 8d d7 d1 3d 52 90 d4 3d
       -0.20518559 -0.34810808 0.10246191 0.103790894
0001d0 d0 7e 8e bf cf 65 6f bf 6b 04 d5 3e f6 7d 31 bf
       -1.113245 -0.9351472 0.41604933 -0.69332826
0001e0 cc 05 a8 3e c9 93 87 3f 5f 02 74 be 74 e8 5b 3e
       0.32816923 1.0591975 -0.2382903 0.21475393
0001f0 34 ae 44 bf d3 78 c4 3e b8 fa 31 3f 70 3a 9f 3e
       -0.7682831 0.38373432 0.6952319 0.31099272
000200 b8 ab 56 3e 71 3c 15 3d 8c 2d ae 3f 94 16 2c 3f
       0.20963943 0.036434595 1.360765 0.6722195
000210 bc b2 97 bc 73 2d be 3e f3 86 7f 3e 67 91 9b bf
       -0.018517844 0.3714405 0.24953823 -1.2153748
000220 26 2a d2 bb e5 70 3d 3f 20 a2 d2 be 3d c8 cd bf
       -0.006413716 0.7400039 -0.41139317 -1.6076733
000230 f8 3d 96 be b0 ab bd 3d 4c 4e 6b 3e eb 32 61 3e
       -0.29344153 0.092612624 0.22979087 0.2199208
000240 b7 44 52 be 0e d1 2f bf 7c 4f d9 3b b3 fc 43 be
       -0.20534025 -0.6867837 0.0066317897 -0.19139366
000250 b6 5e 9a bf d1 57 4f 3f 39 dc 07 bd 0d 74 1e 3e
       -1.2060153 0.8099337 -0.033169005 0.15473957
000260 9e 6d 0b bf 34 d3 b0 3d 2e c1 0f 3f 5f d6 b2 3d
       -0.5446414 0.08634034 0.56154144 0.08732294
000270 5f 94 76 be 6a 04 8e bf be bc e3 3e 7c 6b 82 be
       -0.24080037 -1.1095097 0.44479936 -0.2547263
000280 23 08 ad 3f 57 09 18 be 8d c2 f5 3e d5 86 dc 3d
       1.3518108 -0.14847313 0.47999993 0.10767905
000290 bf 36 e7 be 7f 24 29 bf 31 22 3a bf 8c 8c 7c 3e
       -0.45158955 -0.66071314 -0.7270842 0.2466299
0002a0 ba ad d4 bd e3 ec 03 be f2 55 13 be 04 3e 0e bf
       -0.10384698 -0.12883334 -0.14388254 -0.5556338
0002b0 c8 e6 fe 3d 3b 42 70 3e 16 19 1e bd 03 95 18 3f
       0.12446362 0.23462765 -0.038598143 0.59602374
0002c0 24 68 17 bf fd 11 4d 3e 97 81 06 be d2 5c d5 3e
       -0.5914328 0.20026393 -0.13135372 0.4167238
0002d0 3b 50 a0 be bf 82 5f bf ad 08 1c bf 67 40 73 be
       -0.3131121 -0.8730888 -0.6095074 -0.23755036
0002e0 e1 89 6b 3e 2b f3 6d bc b3 c3 ec be a6 4c 2b 3f
       0.23001815 -0.014523308 -0.46243057 0.6691383
0002f0 ec 27 88 be cc 6b f1 3e b1 6d cb bd 41 36 34 3f
       -0.26592958 0.47152555 -0.09933031 0.70395285
000300 12 f4 cd 3d eb cc 3d bf 41 f0 4d 3e ce 27 7d 3f
       0.10056318 -0.74140805 0.20111181 0.9888886
000310 1d 6c 45 be 81 31 3e bf 5c d3 79 3f b6 7b d8 3e
       -0.19279523 -0.74294287 0.97588134 0.42281884
000320 93 d1 80 bd 47 88 cd bd b6 96 c7 be 3d d3 ab 3e
       -0.06289973 -0.100357585 -0.3898217 0.335596
000330 19 3a bc 3f 49 e1 76 be 60 3b 37 3f ad f0 a9 3f
       1.470523 -0.24109377 0.71574974 1.3276573
000340 f3 6f 89 bf 74 15 a6 3e 49 af fa 3b 9e 0d 99 be
       -1.0737289 0.32438242 0.00765029 -0.29893202
000350 0a e1 af be d9 f1 33 3e dc fb e3 be 67 9c ab 3d
       -0.3435138 0.17572726 -0.4452809 0.08379441
000360 ce 4f c8 be 97 02 75 3e d7 14 95 be d8 17 9d 3e
       -0.39123386 0.23926769 -0.29117462 0.30682254
000370 9b 28 ab bd 36 9e d2 be 43 6f 46 bf ed c8 b1 3e
       -0.08357354 -0.4113633 -0.7751352 0.34723607
000380 84 7d fc be 93 8e 8d be bb ca a1 3d b3 82 12 3e
       -0.4931451 -0.27647838 0.07899996 0.1430767
000390 7f c2 e3 3e 9a 20 57 3f 9e 75 02 3e 4d 0b f2 bc
       0.44484326 0.8403412 0.1274018 -0.029546404
0003a0 de d6 66 bd 78 96 fe be 00 2f 10 3f 12 8b 2d bf
       -0.056357257 -0.49724174 0.56321716 -0.6779033
0003b0 cd cb bb bd 62 db 2f bf f8 d6 00 3e 81 00 36 bd
       -0.09169731 -0.68694127 0.12582004 -0.044434074
0003c0 2f 25 24 3f aa 4f ce be bd 96 13 3e 68 de db bd
       0.6411924 -0.40295154 0.14412971 -0.1073578
0003d0 8f 9f b9 bc ba fc 5d be 7b 0d af 3d 4a 10 b9 be
       -0.022659091 -0.21678439 0.08547493 -0.3614524
0003e0 d7 fb cd be 9f e1 12 bf 2a 80 97 bf 26 d9 ad be
       -0.402312 -0.5737552 -1.1835988 -0.33954734
0003f0 4a 34 4e 3e 17 db 28 3f 41 9a 03 bf ee 5a 9d 3e
       0.20137134 0.65959305 -0.5140725 0.30733436

bias f4 [3]
000000 82 52 fa bf 13 5a d8 bc d7 ee 67 3f
       -1.9556429 -0.026410138 0.90598816
