backend/src/ckpts/svm_linear_5000.pth (torch, 11400 bytes, 2 tensors)

weight f4 [3, 768]
00000000: 1753 0cbc 3f3d 99be c289 43bf df7d 26c0
00000010: 47c2 bf3d 4826 13bf daae 9abe 864c 24c0
00000020: c89e a53f 9076 1740 e3e2 8e3e dd75 aabf
00000030: 8b23 9dbf 642b a83f 869a 603f 5858 8bbf
00000040: d8ee 1cbf 9faf d23e c394 6cbf 8d5c 543e
00000050: 3d2b b03f ae30 73bd 0c76 c93e 215f 543f
00000060: c4a5 2f3f a937 96bf 6d43 b1b9 e68a 233f
00000070: ad12 22bf fb04 e2be cbdc 2e40 5bdb ac3e
00000080: e1a7 3ebe 7130 ae3f 7580 9b3f 0d3a 403f
00000090: c477 ab3d b81e 14c0 e720 2a3f d64c 6bbf
000000a0: 760a 0240 0cbe f7bf d6fd 04c0 2ac2 8c3f
000000b0: 41c3 1040 a6ac b2bf 68ec 5fbf 224e ac3f
000000c0: 4b9d 52be 9252 cd3f 7080 35be e1ce b93f
000000d0: 7d30 cb3f 84a6 2cbf c1e1 e03d 7f0f 733f
000000e0: 908c 75be db2b 02c0 3900 96bf 296f acbf
000000f0: 3c77 20be dea4 bfbf 401b 30c0 786d fbbd
00000100: 664c d4bf 4e4b c73d d3fe df3f c455 88bf
00000110: 28e2 8dbf 382f d1be 80f8 8dbf f6cf d33f
00000120: e497 63be 612d 543f 63ef 27bf 44b3 753d
00000130: 9015 093f aa23 1c3e 7ee2 1d3d 57be 21bf
00000140: 0279 773e 23f5 be3e ad48 6540 15e0 813e
00000150: 1f75 8cbe 3a5e dcbd b8ad 3240 4676 b4bf
00000160: ed05 3440 de1a 9fbf 4ba6 943d 7dc1 f23f
00000170: ca6b a6bf cde3 c43d 1cea 773f 2070 cbbf
00000180: e7fd 60be 9325 14bd 41fe fd3d 7f32 12be
00000190: e04b 4140 dd77 a7be 9b48 0340 4996 0140
000001a0: 1ad5 14bf aca2 8ebf 008f 1a3f ff49 bbbd
000001b0: 5a08 2bc0 9862 4ebf 51b4 f0bf 8c21 963e
000001c0: c3d4 6ebe 3610 66bc 11e4 8ebf 3e56 7d3e
000001d0: f0ae d5bf 19be 05bf c1f1 03c0 982c 5fbf
000001e0: 5e4d 6b3f 9426 5e3f ac4f 00bf cecc f1be
000001f0: 13ac ffbf e8df 94bf cb12 cf3f 431b c0bf
00000200: 2af1 0ac0 5891 4f3f b191 803f d2d5 0540
00000210: ef53 c9bf 5e37 c63f 09d7 343f 6ca9 2bbf
00000220: 3739 a73e 8bd9 cf3f 45f6 85bf 8f4d e9bf
00000230: 713a 4dbe 7cd3 6b3e 9788 c23f 83b1 aa3e
00000240: d324 dabe 70f1 283d 21f8 8f3f b07f 7abe
00000250: 558d 2cc0 abcb cd3f 4412 2f40 6ee7 09c0
00000260: 0b1d 5fbf a7cb bcbe 2e4f 873f b8b9 c03f
00000270: 9efb 8bbe 8bfe 1ec0 8c78 ac3e 6c23 f2be
00000280: 2369 ee3f 3aa4 debe 06af b2bc eb73 64bf
00000290: ceab d53e 9c2d 2ac0 fdcb 93bf 31fd 42bf
000002a0: 89fd 1b3f 1bf9 6c3e 143c 8f3f e6f7 f4bf
000002b0: 2eb4 8f3d c111 273e 4928 b1be 793b 32bf
000002c0: fdb9 1bc0 f0b1 e1bf 3721 003f 2083 db3e
000002d0: e2d3 87be fb59 d8bf aba0 9dbf 00b9 77be
000002e0: 0be2 0940 ae8b 23bf 3479 3f3d a683 593f
000002f0: b990 803c b698 3a40 e687 b2bf ffc4 ec3e
00000300: b768 4bbd e058 14bf e272 0b3f bdda e23d
00000310: 0e3a 843d 3b33 1abf e772 de3e 4c93 38be
00000320: 9a55 163e 7315 6fbe a7a8 febe 07aa 013f
00000330: 70fe 803f b394 823e cfdb b63e 72f7 613f
00000340: d103 fdbe 600e 873f 5f8e d73d c804 aabe
00000350: dab6 16bf 9b32 25be 4a25 20be 0f5d 0dbf
00000360: 486c 263f 0bb4 9d3f d40b 31be 4509 b73f
00000370: 0d78 08bf 5e4f 953f a4f2 9abd 5e4f b9be
00000380: 1161 28bf 7fec 7e3d 6a48 1a40 c768 793e
00000390: edf3 b63e d91e ae3f 6a07 54bb d47c a13f
000003a0: aa63 763d c9d5 5bbf 1622 be3f e764 5fbf
000003b0: bea8 f3bd 9e1a 7a3e 3225 a23d f06e a63e
000003c0: 05be fa3f 119a bdbf d51e 5e3e 3374 833f
000003d0: 4b82 8ebf 3457 c6bd 8090 eabd 4230 d0be
000003e0: 3994 32bf 8746 cabf 1239 263f db9f 00c0
000003f0: 3e77 19bf cd08 c83f 424c 7ebf 353a f9be
-0.008564732 -0.2992954 -0.76382077 -2.6014326 0.09363227 -0.5748029 -0.30211526 -2.5671706
1.2939081 2.3666115 0.27907476 -1.3317219 -1.2276472 1.3138242 0.87735784 -1.0886335
-0.61301947 0.41149613 -0.9241449 0.2073843 1.3763195 -0.059372596 0.39347875 0.82957655
0.68612313 -1.1735736 -0.00033810307 0.6388382 -0.63309747 -0.44144425 2.7322261 0.33761105
-0.18618728 1.3608533 1.2148577 0.7508858 0.08372453 -2.314375 0.66456455 -0.9191412
2.0318885 -1.9354873 -2.077993 1.0996754 2.2619174 -1.3958938 -0.874701 1.3461344
-0.20567815 1.6040823 -0.17724776 1.451626 1.5874172 -0.6744158 0.10980559 0.9494552
-0.23979402 -2.0339267 -1.1718818 -1.3471423 -0.15670484 -1.4972188 -2.7516632 -0.12276739
-1.6585815 0.0973116 1.7499641 -1.0651174 -1.1084642 -0.40856338 -1.1091461 1.654784
-0.2222591 0.8288174 -0.6559965 0.059985414 0.53548527 0.1524798 0.038546078 -0.6318106
0.24167255 0.372964 3.5825608 0.25366274 -0.27433106 -0.1076016 2.791853 -1.4098594
2.8128617 -1.2430074 0.0725828 1.8965298 -1.3001645 0.09613762 0.968416 -1.5893593
-0.21971856 -0.036168646 0.12402011 -0.14277075 3.020256 -0.32708636 2.0513065 2.0247977
-0.5813767 -1.1143394 0.6037445 -0.09144973 -2.6723847 -0.8061919 -1.8805028 0.2932247
-0.2332335 -0.014041951 -1.116335 0.2473993 -1.6694012 -0.5224319 -2.0616305 -0.8717742
0.9191493 0.86777616 -0.5012157 -0.47226566 -1.9974388 -1.1630831 1.617761 -1.500832
-2.1709695 0.8108115 1.0044461 2.0911756 -1.572874 1.5485647 0.7064062 -0.6705539
0.3266084 1.6238264 -1.046578 -1.8226794 -0.20041825 0.23029894 1.5197934 0.33338556
-0.4260622 0.041245878 1.1247598 -0.24462771 -2.6961262 1.607778 2.7354898 -2.1547503
-0.8715369 -0.36874124 1.0571039 1.5056677 -0.27340406 -2.484286 0.3368572 -0.4729265
1.8625835 -0.4348467 -0.021811973 -0.89239377 0.4173264 -2.6590338 -1.1546627 -0.7616759
0.6093374 0.23141901 1.1190209 -1.9138153 0.070167884 0.16315366 -0.34601048 -0.69622
-2.4332268 -1.7632427 0.5005068 0.42873478 -0.2652884 -1.690246 -1.2314657 -0.24191666
2.1544216 -0.6388501 0.046746448 0.84966505 0.01569401 2.9155707 -1.3947723 0.46244046
-0.04966041 -0.5794811 0.5447217 0.11076877 0.064563856 -0.6023442 0.4344704 -0.1802494
0.14681092 -0.23348026 -0.49738047 0.50650066 1.0077648 0.25504074 0.35714576 0.88268197
-0.49416974 1.0551262 0.10525202 -0.33206773 -0.5887276 -0.16132586 -0.15639225 -0.5522012
0.65008974 1.232057 -0.17289668 1.4299704 -0.5330818 1.1664846 -0.07565811 -0.36193365
-0.6577311 0.06223726 2.4106698 0.24356376 0.35732976 1.3603164 -0.0032353052 1.261622
0.06015364 -0.85873085 1.4854152 -0.8726334 -0.118974194 0.24424216 0.07917251 0.32506514
1.9589239 -1.4812642 0.21691449 1.0269836 -1.1133512 -0.096846014 -0.114533424 -0.40661818
-0.6975742 -1.5802773 0.6493083 -2.0097568 -0.59947574 1.5627686 -0.9933511 -0.4867722

bias f4 [3]
00000000: caf9 03c0 678e 3abe e778 1f3e
-2.062121 -0.18218385 0.15573464
