backend/src/ckpts/svm_linear_50000.pth (torch, 11406 bytes, 2 tensors)

weight f4 [3, 768]
00000000: 61a4 af3e 0251 47bc 368a 24bf dab7 73c0
00000010: cdaf 763e c06c 863d 617e 7cbf 618d 47c0
00000020: f945 3340 5c9d 1e40 ffd4 623e 2ff1 40c0
00000030: 9ba4 04c0 c7d5 d33f dc27 343f 2ba2 4f3f
00000040: 79b4 d23e 4053 613f 5bcc d8bd 6859 2ebf
00000050: 541d 903f 40a9 0abe a92c c2bf 275f 5fbd
00000060: 3e08 d33f 30ac debf 8faa 22be e8d5 323f
00000070: c7f6 0bc0 5ea7 64be 1e33 8440 f0a7 e93f
00000080: e67b a7bd 6b10 713e ae45 3b3f 7676 f13e
00000090: 5f5d a63e 4117 43c0 4f2b 413f eee7 8bc0
000000a0: 5f39 6640 73e4 22c0 4d5e d0bf f723 dc3f
000000b0: 42ef 1a40 910f a3bf 96ff 21bd 2f1f 803f
000000c0: 7879 3ebc 154e a83f abbe a83e b633 2e40
000000d0: 1320 5640 2317 adbf a8de 383e 8f2f 913f
000000e0: 15b6 14bf b1c7 3cc0 af47 28c0 b53a e9bf
000000f0: 2b55 61bf 93af 92bf f546 28c0 c224 99be
00000100: 87a2 55bf fd46 dd40 6a21 733f c646 55bf
00000110: c41b 2bc0 f238 aabf 6bdf 16bf b75f 8340
00000120: 793c 983e ecf1 d1be 5752 19bf ec30 e43d
00000130: cd92 db3f bbbe e63e d51d 7abd c8f7 c6be
00000140: 1998 3a3e cc6e bc3e 93a0 a440 ac24 1fbf
00000150: 5853 23bf 4630 e13d 2d7e 6140 4d83 08c0
00000160: 01ce 5240 e9b2 c3bf 4cc7 483e ea51 0340
00000170: 23b4 1cc0 fa76 133d f80c 0840 fd4a cabf
00000180: b3fb df3f 2484 64be 202d 21bd 1665 ecbd
00000190: 6584 0b40 e345 9cbe dea2 c13f 4193 e93f
000001a0: d783 2fbe 1fbd 7dbf eea6 e43f 92ae 6c3e
000001b0: b708 12c0 6151 53bd eded 1fc0 f395 6e3e
000001c0: 403d 493e 2157 9abf 50d8 15bf b2cd 903e
000001d0: b513 53c0 0955 d1bd 0b70 fdbf 261e 8bbf
000001e0: 2fd4 8e3f 9759 a73f d02d 88be b47e 293f
000001f0: 2f51 88c0 2cf7 b3bf d35e 953d 9fd8 55bf
00000200: 17f0 36c0 9a89 95be 249d 1140 af65 2440
00000210: e9e2 45bf 6a10 0e40 6106 0340 659a 54bf
00000220: c1bd 4b3e 2fc0 2040 3551 1dbf 4560 28c0
00000230: 6ca0 10be 2477 0040 ce65 1040 173e 833d
00000240: 9197 20be 8d11 9c3e 7e5e 7a3e 3fb6 febd
00000250: 820a d2bf f818 953f a161 2e40 db1c 00bf
00000260: 0430 8ebf 7281 0cbf c9a8 4d3f dcfc fd3f
00000270: 4f36 d8bd b069 21c0 dc8b 583e 20f0 223f
00000280: 1a79 5b40 1037 6f3f 37a7 173e c3fc 8b3e
00000290: 6ea7 0cbf 7767 a7c0 3369 01c0 d522 92bf
000002a0: 5017 2c3e b9cc df3d 12c9 d23f 78c7 2fc0
000002b0: 9963 91bf d33b 3e3c 22ae 8cbe f634 4dbd
000002c0: 916a 3cc0 397f 20c0 6546 483d 55ce 6abf
000002d0: 75af 70bf b189 0fc0 4116 38c0 f6d9 86bd
000002e0: c6c2 0f40 7563 e1be 466e 97be e25e f33e
000002f0: 279e e3bd c5c2 ae3f 8e9d fabf 735e 353f
00000300: 9e0e 02be eb2a 70bf b3d6 2abf c45c a43d
00000310: 40bd 6abc 39f1 abbe 9923 d53e 049e bcbe
00000320: 2603 843f 64f7 24be a0a9 abbd 1717 0a3f
00000330: b16b 5a3f b706 83be c27b a9be 110f 0d3e
00000340: 5fdd c9be 2aac a83f d8eb 1cbd f982 ad3f
00000350: cc3d dfbc d51b 38bf de33 02be 4f2a 2cbf
00000360: 316c c0be f6a2 eb3f 8763 90bd c4d3 9f3f
00000370: c365 6ebf df88 763f abd3 dbbe ca7a 9bbe
00000380: 3717 fbbe 32f4 19c0 bbe4 0f40 8cd7 31be
00000390: ea3b 0340 4c01 1e3f 732c c2bd 511d 773f
000003a0: d8da 9bbd 139a 13bf e925 ac3f 9c3b e9bf
000003b0: d36f 6ebe 0501 8dbe 0626 233d bcdd 9d3e
000003c0: a629 4440 1fd3 c63e 1e42 aaba 2ae9 e73f
000003d0: fe06 d3bf 3d8f 193e 7cf2 dabd 4f64 6abe
000003e0: d125 4fbe 7e05 07c0 b6b6 4dbf 5548 09c0
000003f0: e33b dfbd 1471 a03f a682 d9bf 6b2a 99bf
0.343051 -0.01216531 -0.64273393 -3.8080964 0.240905 0.06563711 -0.9863034 -3.118004
2.8011458 2.4783545 0.22151564 -3.0147207 -2.0725467 1.6549615 0.7037332 0.81106824
0.41153315 0.88017654 -0.10585853 -0.68105173 1.125895 -0.13541126 -1.5169879 -0.054534104
1.648689 -1.7396297 -0.15885375 0.69857645 -2.186937 -0.2232947 4.13124 1.8254375
-0.081779286 0.23541419 0.731532 0.4716069 0.32493111 -3.0482943 0.7545671 -4.3720617
3.5972517 -2.5451934 -1.6278778 1.7198476 2.4208531 -1.2739125 -0.039550386 1.0009516
-0.01162564 1.3148829 0.32957968 2.7219062 3.3457077 -1.3522686 0.18053687 1.1342639
-0.58090335 -2.9496882 -2.6293752 -1.8221041 -0.8802058 -1.1459831 -2.6293309 -0.29910856
-0.8345112 6.9149156 0.9497286 -0.83311117 -2.6735697 -1.3298628 -0.5893466 4.105434
0.29733637 -0.41004884 -0.59891266 0.111421436 1.7154175 0.4506739 -0.061063606 -0.38860917
0.18222083 0.3680328 5.1446013 -0.6216533 -0.6379905 0.109955356 3.5233262 -2.133014
3.2938235 -1.5288974 0.19607276 2.0518746 -2.4484947 0.036002137 2.1257915 -1.5804135
1.7498688 -0.22316033 -0.039349675 -0.11542718 2.1799557 -0.3052207 1.5127828 1.8248063
-0.17140137 -0.991167 1.7863443 0.23113468 -2.281782 -0.05159128 -2.4988968 0.23299389
0.19652271 -1.205784 -0.5853319 0.28281933 -3.2980778 -0.10221297 -1.9799818 -1.0868576
1.1158503 1.3074216 -0.26597452 0.6620896 -4.25991 -1.4059806 0.07293477 -0.8353366
-2.858404 -0.29206544 2.275216 2.5687063 -0.7729936 2.2197518 2.0472643 -0.8304809
0.19896604 2.51173 -0.6145204 -2.6308758 -0.14123696 2.0072718 2.2562137 0.06408327
-0.15682818 0.3048214 0.24450108 -0.124371044 -1.6409457 1.1648245 2.7247088 -0.5004403
-1.1108403 -0.5488502 0.8033567 1.9842792 -0.105572335 -2.5220757 0.21147102 0.6364765
3.4292665 0.93443394 0.14809881 0.2734128 -0.5494298 -5.23138 -2.0220459 -1.141688
0.16805768 0.109277196 1.6467612 -2.7465496 -1.135852 0.011610943 -0.27476603 -0.050099336
-2.9440043 -2.507765 0.04889526 -0.9172109 -0.94017726 -2.242779 -2.8763583 -0.065845415
2.246263 -0.44021192 -0.2957632 0.47533327 -0.111141495 1.3653189 -1.9579332 0.70847243
-0.12700889 -0.9381549 -0.66733855 0.08025506 -0.014327347 -0.33582476 0.4162872 -0.36839306
1.0313461 -0.16109997 -0.08381963 0.5394148 0.85320574 -0.2559106 -0.33102232 0.13775279
-0.39426705 1.317754 -0.038310856 1.3555595 -0.027251147 -0.7191747 -0.12715098 -0.6725206
-0.37582543 1.8409107 -0.07050233 1.2486501 -0.93124026 0.963026 -0.42934927 -0.30367118
-0.4904115 -2.4055295 2.2483356 -0.17367381 2.0505319 0.6172073 -0.09481134 0.9652911
-0.076101005 -0.57656974 1.3449069 -1.8221316 -0.23284845 -0.2753984 0.039831184 0.30833232
3.065042 0.38832948 -0.0012989675 1.8118031 -1.6486509 0.14996047 -0.106907815 -0.22889827
-0.2022927 -2.1097102 -0.8035692 -2.1450398 -0.10900094 1.2534509 -1.6992996 -1.196607

bias f4 [3]
00000000: a1ab 00c0 7db1 80be fa5e d03e
-2.0104754 -0.25135413 0.4069746
